data.pth (torch, 7127 bytes, 6 tensors)

l1.weight f4 [8, 93]
0	0xbdee6bab	-0.1164163
1	0x3f04fb74	0.51946187
2	0xbe64c4cf	-0.22340702
3	0x3f01a7a8	0.5064645
4	0x3ee73e1f	0.45164582
5	0x3e8d86f5	0.27642027
6	0x3e749e40	0.23888493
7	0x3f61e03d	0.88232785
8	0x3f3ae3ff	0.73004144
9	0x3f020344	0.5078623
10	0x3f06c892	0.52649796
11	0x3f28f8eb	0.6600482
12	0xbea50bba	-0.3223551
13	0x3eb9a563	0.36258993
14	0x3f28d544	0.6595042
15	0xbeafc83f	-0.34332463
16	0x3ef9106f	0.4864535
17	0xbeadb807	-0.33929464
18	0x3f119d04	0.5688021
19	0xbe9128aa	-0.28351337
20	0x3f127545	0.5721019
21	0x3eca8fcf	0.39562842
22	0x3f189c6b	0.59613675
23	0x3f1a9f45	0.60399276
24	0xbea6a890	-0.32550478
25	0xbe2bd9c5	-0.16782291
26	0x3e9adc23	0.30246076
27	0x3f437dfa	0.763641
28	0x3ec83649	0.39103916
29	0x3efd00d1	0.49414685
30	0xbc5f0f23	-0.013614449
31	0x3efaed00	0.49008942
32	0x3eed82e5	0.46388927
33	0x3e2ecbdc	0.17069954
34	0x3eda9412	0.42691094
35	0x3d18ef57	0.037337627
36	0x3d07cfa7	0.033157017
37	0xbe161fb7	-0.14660536
38	0xbe76ddda	-0.24108067
39	0x3e3892db	0.18024771
40	0x3f31ac16	0.6940321
41	0x3eafc23f	0.34327886
42	0x3f190e96	0.5978788
43	0xbdca4a61	-0.09877468
44	0x3f2341ae	0.63772094
45	0xbe097b15	-0.13425858
46	0x3d74098e	0.059579425
47	0xbdc86c78	-0.09786314
48	0x3f11550b	0.5677039
49	0x3da941db	0.08264514
50	0x3d940dd0	0.07229197
51	0xbe22dec2	-0.15905288
52	0xbcd0f723	-0.025508469
53	0x3ee95e90	0.45579958
54	0xbd7f3b49	-0.062312398
55	0x3f298068	0.6621156
56	0x3ef03ae8	0.46919942
57	0x3f0a62ff	0.54057306
58	0x3f103792	0.56334794
59	0x3eb467e7	0.3523552
60	0x3f522d8c	0.8210075
61	0x3ebfdc7f	0.37472913
62	0x3df88d64	0.12136343
63	0x3f09d972	0.5384742
64	0x3f2a2711	0.6646586
65	0xbe9eac15	-0.30990663
66	0x3ea94f6c	0.33068407
67	0x3f2d466e	0.6768559
68	0xbe32b0af	-0.17450212
69	0x3e19d7ed	0.15023775
70	0xbe903c8d	-0.28171197
71	0x3ed19bf0	0.40939283
72	0x3e51f5b3	0.20503883
73	0x3e9fef70	0.31237364
74	0x3e03c5e0	0.12868452
75	0xbf1de54c	-0.61678004
76	0xbd14935a	-0.036273338
77	0x3ea4d762	0.32195574
78	0x3f08a7ec	0.5338123
79	0x3f104302	0.56352246
80	0x3c50dff0	0.012748703
81	0x3e81816a	0.25294048
82	0xbeccae50	-0.3997674
83	0x3d698dd4	0.057020023
84	0x3f1446ea	0.57920706
85	0x3e79996c	0.24374932
86	0xbe82f573	-0.25577888
87	0xbeb668a3	-0.35626706
88	0x3eb924d9	0.36160925
89	0xbec98449	-0.39358738
90	0x3f180fa7	0.59398884
91	0x3f18260e	0.59433067
92	0xbdb2060f	-0.08692562
93	0xbc0a7902	-0.008451702
94	0xbea4c2f5	-0.3217999
95	0x3e18888e	0.14895841
96	0x3eba9648	0.3644278
97	0xbdd6671a	-0.10468884
98	0x3c70a460	0.014687628
99	0x3ec583b2	0.38577038
100	0x3f6618dc	0.8988168
101	0x3df4b56f	0.11948668
102	0x3ef46238	0.47731185
103	0x3ec7bd25	0.39011493
104	0x3f267575	0.65022975
105	0xbef47664	-0.47746575
106	0x3f1b09dd	0.60561925
107	0x3e84c55f	0.25931832
108	0x3f146667	0.57968754
109	0x3e094e21	0.1340871
110	0xbe5c2189	-0.21497168
111	0x3d61b7db	0.05510698
112	0xbe93a251	-0.28834775
113	0xbdef565e	-0.11686395
114	0xbea4002e	-0.32031387
115	0x3f0f105a	0.55884326
116	0xbf2d0431	-0.6758452
117	0xbe50a416	-0.20375094
118	0x3f11783a	0.56824076
119	0x3d936412	0.07196821
120	0x3f64804a	0.89258254
121	0x3d290892	0.04126794
122	0x3d308957	0.043099727
123	0xbc76b55a	-0.015057886
124	0x3e603bf3	0.21897869
125	0x3ed65db9	0.4186838
126	0x3e4f4dd0	0.20244527
127	0x3d934d66	0.07192497
128	0x3f0c5067	0.54810184
129	0xbd8a6760	-0.067579985
130	0x3f0da887	0.5533528
131	0xbeb5d0df	-0.35510918
132	0x3ef94d63	0.48691854
133	0x3d55baae	0.052179985
134	0xbe854f87	-0.26037237
135	0x3e464b0d	0.19364567
136	0xbe94b262	-0.29042345
137	0x3f2b5a9c	0.66935134
138	0xbde90fb7	-0.113799505
139	0x3d8ef9b2	0.06981219
140	0x3f45c4cf	0.7725343
141	0x3edbd944	0.42939198
142	0x3e207a34	0.15671617
143	0xbe4fe8ec	-0.20303696
144	0x3f327e03	0.6972353
145	0x3f67aed1	0.90501124
146	0x3dff8562	0.12476613
147	0x3f2e1eee	0.68015945
148	0x3ec12d57	0.37729904
149	0x3edd5159	0.43226126
150	0x3ea19ec7	0.3156645
151	0x3eb8cb14	0.36092436
152	0xbe90e0bf	-0.28296468
153	0xbeab6c35	-0.33480993
154	0x3f112faf	0.56713384
155	0xbe619575	-0.2202967
156	0x3f22f316	0.6365217
157	0xbdd9931f	-0.10623764
158	0xbe1db2a2	-0.15400174
159	0xbbaa32cf	-0.005194045
160	0xbe70b18d	-0.2350523
161	0x3eeab672	0.4584232
162	0x3e248b76	0.16068825
163	0x3f5832de	0.8445262
164	0x3ee5e954	0.44904578
165	0xbe8045c2	-0.2505322
166	0x3d45832f	0.04822081
167	0xbe371a44	-0.17881113
168	0xbef191f0	-0.47181654
169	0x3be14c12	0.0068755234
170	0x3cb33389	0.02187516
171	0x3d277754	0.040885285
172	0xbebb488c	-0.36578786
173	0x3e889e15	0.26683107
174	0x3d4be979	0.049783204
175	0x3f16fc0e	0.58978355
176	0xbe29296b	-0.16519706
177	0x3f2106d0	0.6290102
178	0x3e859853	0.26092777
179	0xbefc31da	-0.49256784
180	0xbde31f1d	-0.11089919
181	0x3e046dda	0.1293253
182	0x3f88f191	1.069872
183	0x3e15a7b7	0.1461476
184	0x3e5930ec	0.21210068
185	0x3f303e18	0.6884475
186	0x3ea2d115	0.31800142
187	0xbe2aa383	-0.16663937
188	0x3f1940f3	0.5986473
189	0xbeb136f9	-0.34612253
190	0x3e8d85bc	0.27641094
191	0x3ee0d8f5	0.43915525
192	0x3e9617cb	0.29315028
193	0xbe830f56	-0.25597638
194	0xbe49465c	-0.19655746
195	0xbee5c9b6	-0.44880456
196	0xbf2f6156	-0.685079
197	0x3de217d1	0.11039699
198	0x3d515aac	0.051111862
199	0xbf0d105c	-0.5510309
200	0x3e3b8614	0.18312865
201	0xbec4de5f	-0.38450906
202	0x3eb377dc	0.35052383
203	0x3ef94fc5	0.48693672
204	0xbeb9e615	-0.3630835
205	0x3f01f6f8	0.5076747
206	0x3e578f31	0.21050717
207	0xbe8f1981	-0.27949145
208	0xbc69bb73	-0.014265883
209	0xbede92c3	-0.43471345
210	0x3efecbe5	0.49764934
211	0xbe0d87d8	-0.13821352
212	0x3eaf1e6c	0.34202898
213	0xbee7b866	-0.45257872
214	0xbd9a7df8	-0.07543558
215	0x3f1a480d	0.6026619
216	0x3e7bd1d6	0.24591765
217	0x3f1d6889	0.61487633
218	0x3f3657ba	0.7122761
219	0x3f057653	0.52133673
220	0x3e0d816b	0.138189
221	0xbe5272e0	-0.20551634
222	0x3cc7aef5	0.024375418
223	0xbd8c86f5	-0.068616785
224	0x3d055be9	0.032558355
225	0x3f2ba6bc	0.6705129
226	0xbe47d1fd	-0.19513698
227	0xbf0b5b5c	-0.5443628
228	0xbe4b52e0	-0.19855833
229	0xbd85ceaf	-0.065335624
230	0xbd66f813	-0.056388926
231	0x3f0f8943	0.5606882
232	0x3eb77ad9	0.35835913
233	0xbe1a44bf	-0.15065287
234	0xbedc417f	-0.4301872
235	0xbd980168	-0.07422143
236	0x3ed15f7d	0.40893164
237	0x3f339696	0.7015165
238	0xbdf50f71	-0.11965836
239	0xbe8f1e9b	-0.27953038
240	0xbe14f923	-0.14548163
241	0xbf389ed8	-0.72117376
242	0x3defa8cc	0.11702117
243	0xbebefbf1	-0.3730159
244	0xbeab35bb	-0.3343943
245	0xbe771e69	-0.24132694
246	0x3f041a20	0.51602364
247	0xbdbcb524	-0.09214237
248	0x3f1dc060	0.61621666
249	0xbc276a8b	-0.010218273
250	0xbebcbe3c	-0.36863887
251	0x3eedc2cf	0.4643769
252	0x3f0f0458	0.55866003
253	0x3eca1afc	0.39473712
254	0xbd5d735c	-0.054065093
255	0xbe8d7336	-0.2762696

l1.bias f4 [8]
0	0x3f953788	1.1657572
1	0x3f1a97a5	0.6038764
2	0x3f6edd01	0.93305975
3	0x3efbe44d	0.49197617
4	0x3ee23362	0.44179827
5	0x3f26d09b	0.65162057
6	0x3f8a878b	1.0822614
7	0x3f572329	0.84038025

l2.weight f4 [8, 8]
0	0x3f230e87	0.6369404
1	0xbf00ae3d	-0.50265867
2	0xbf1dc6a8	-0.6163125
3	0xbf342803	-0.70373553
4	0x3fa875bd	1.3160931
5	0x3a47ee2b	0.00076267374
6	0xbe7a3272	-0.24433306
7	0xbe188bb5	-0.14897044
8	0x3face5c8	1.3507624
9	0xbc8fd91c	-0.01755958
10	0xbf843256	-1.0327861
11	0xbe5e22be	-0.2169294
12	0xbeb9f2e8	-0.36318135
13	0x3fa232ab	1.2671713
14	0xbf1e8baa	-0.6193186
15	0x3e126c8d	0.14299221
16	0x3f5db8ee	0.86610305
17	0x3d487b68	0.048945814
18	0x3f91c6bb	1.1388773
19	0xbf8c9d6e	-1.0985544
20	0xbf8683b1	-1.0508939
21	0xbf4a8d7a	-0.79122126
22	0x3e8850d9	0.26624182
23	0x3f8a6bb3	1.0814117
24	0x3f93b402	1.1539309
25	0xbee0d762	-0.43914324
26	0x3f0d73b8	0.552547
27	0x3f94d045	1.1626059
28	0xbf21b51a	-0.63166964
29	0xbf895c84	-1.0731359
30	0xbef79592	-0.483563
31	0x3fccfb8b	1.6014265
32	0x3d671e75	0.05642553
33	0xbe5d2db1	-0.21599461
34	0x3fb781ec	1.4336524
35	0x3edfcd84	0.43711483
36	0xbf0c8654	-0.5489247
37	0xbeeca7d1	-0.46221784
38	0x3f9eac30	1.2396297
39	0x3e96c3fc	0.294464
40	0x3f93c795	1.1545283
41	0x3e883767	0.2660477
42	0xbe32aed7	-0.17449509
43	0xbf50ae0d	-0.8151558
44	0xbdde600b	-0.108581625
45	0x3fdad077	1.7094868
46	0x3fe0f165	1.7573668
47	0xbc4d3091	-0.012523786
48	0x3f411760	0.7542629
49	0x3ebc818e	0.36817592
50	0x3f78d75b	0.97203606
51	0x3e9a2e6d	0.30113545
52	0x3fab5ad1	1.338709
53	0xbf02498e	-0.50893486
54	0xbf61e1db	-0.88235253
55	0xbfacc867	-1.3498658
56	0x3f126fa5	0.57201606
57	0x3fe3c42d	1.7794243
58	0xbf2198a5	-0.6312354
59	0xbf95ffcb	-1.1718687
60	0x3f0d7cb4	0.55268407
61	0xbd482710	-0.048865378
62	0xbdb55018	-0.08853167
63	0x3fb3c5b3	1.4044708

l2.bias f4 [8]
0	0x3efec8f0	0.49762678
1	0x3ece6e63	0.40318593
2	0x3e9cd717	0.3063285
3	0x3f16eaa2	0.5895177
4	0x3f25a127	0.64699024
5	0x3f15e46d	0.58551675
6	0x3ec0c8c7	0.3765318
7	0x3f1e1734	0.61754155

l3.weight f4 [15, 8]
0	0xbe95d209	-0.29261807
1	0x3f0b635d	0.5444849
2	0xbfca862e	-1.5822198
3	0x3f176592	0.5913936
4	0x3d2ab240	0.0416739
5	0x3ec2897e	0.37995523
6	0xbfdb2299	-1.7119933
7	0xbfa6ee76	-1.3041523
8	0x3ea97a9f	0.33101365
9	0xbff14769	-1.8849918
10	0xc0021fa9	-2.0331824
11	0xbf7da256	-0.9907583
12	0xbfa713d6	-1.3052928
13	0x3f3fe66a	0.7496096
14	0xbe236a82	-0.15958598
15	0x3f1593ef	0.58428854
16	0x3f342529	0.703692
17	0xbef3617f	-0.4753532
18	0xbf3cfa13	-0.7381908
19	0xbf21e646	-0.63241994
20	0xbfb89bbb	-1.4422525
21	0xbf4b60f4	-0.79444814
22	0x3f6a5b87	0.9154591
23	0xbf3bbd2b	-0.7333552
24	0xbf22c41f	-0.6358051
25	0xbf68d6a7	-0.90952533
26	0xbfa95454	-1.322886
27	0x3ee4a5af	0.44657657
28	0x3f023ba0	0.5087223
29	0xbfb6ce3d	-1.4281689
30	0x3f311153	0.6916706
31	0xbf4dd7ef	-0.80407614
32	0xbf2604a8	-0.64850855
33	0xbf95d2cf	-1.1704959
34	0xbfa52b9f	-1.2903937
35	0x3f190da5	0.59786445
36	0xbf80f58b	-1.0074934
37	0xbf57ff67	-0.8437409
38	0xbf193dd6	-0.5985998
39	0x3f4dd7e3	0.8040754
40	0x3c68ec51	0.0142164985
41	0x3efae44d	0.49002305
42	0xbfcbf1a7	-1.5933121
43	0xbf9e363f	-1.2360305
44	0xbfeb0ec4	-1.8363881
45	0x3e08c3fb	0.1335601
46	0x3e82683f	0.25470158
47	0x3e7ff6a1	0.24996425
48	0xbb6c026a	-0.003601218
49	0xbfa8acae	-1.3177698
50	0xbdd658a2	-0.10466124
51	0xbf0b72b9	-0.5447193
52	0x3ee578fa	0.4481886
53	0xbf1b5dcf	-0.60690016
54	0x3ea2094a	0.31647712
55	0x3e9244bd	0.28568068
56	0xbee590c9	-0.44837025
57	0xbf7db61e	-0.99106014
58	0x3f0ba535	0.5454896
59	0x3f6e032c	0.9297359
60	0x3f403a37	0.7508883
61	0xbffe37b6	-1.9860752
62	0xbfac0bbf	-1.3441085
63	0xbf8a1952	-1.0788977
64	0x3f55fce8	0.8358903
65	0x3f0a2c37	0.53973716
66	0xc000ec85	-2.014436
67	0xbf8afadf	-1.085781
68	0xbfa3d01d	-1.2797886
69	0x3f38ab2f	0.72136205
70	0xbfe0bb97	-1.7557248
71	0xbd9bfe69	-0.07616884
72	0xbfb8c730	-1.4435787
73	0x3e8f6300	0.28005219
74	0x3d1b5124	0.03791918
75	0xbf2bcef1	-0.6711264
76	0xbdec1e03	-0.11529162
77	0x3f07a4d8	0.52985907
78	0xbfa86051	-1.3154393
79	0x3daea2c6	0.0852714
80	0xbf7c6e52	-0.98605835
81	0xbf972d01	-1.1810609
82	0x3f168ee0	0.5881176
83	0x3eed4ae9	0.46346214
84	0x3eebb50c	0.46036565
85	0xbe803b9c	-0.25045478
86	0xbf9af586	-1.2106178
87	0x3d094364	0.033511534
88	0x3f479a78	0.77970076
89	0xbd4e86f8	-0.050421685
90	0xbf12535e	-0.5715846
91	0x3e1d2f89	0.15350164
92	0xbfdad0aa	-1.7094929
93	0xbeb9bfdf	-0.362792
94	0xbe287d01	-0.16453935
95	0x3e9b5711	0.30339864
96	0xbed6bd82	-0.41941458
97	0x3f5f188e	0.8714684
98	0xbe9a4270	-0.30128813
99	0x3e58bc05	0.21165474
100	0xbfff8909	-1.9963695
101	0x3e10405d	0.14087053
102	0xbfc4baaf	-1.5369471
103	0x3e75ed71	0.24016358
104	0x3e1066c9	0.1410171
105	0x3e9d6762	0.30742937
106	0x3e2c8670	0.16848159
107	0x3e94df22	0.29076487
108	0xbeee1b7a	-0.46505338
109	0xbecad825	-0.3961803
110	0x3da749cd	0.08168373
111	0xbf6559b2	-0.8958999
112	0xbefb174b	-0.4904121
113	0xbf8dc6db	-1.1076311
114	0xbfd55f0f	-1.6669635
115	0xbf81894a	-1.0120022
116	0x3f21924d	0.6311386
117	0x3f74b1ee	0.95584
118	0xbeba82b7	-0.36427853
119	0xbf968066	-1.1757934

l3.bias f4 [15]
0	0x3e33e875	0.17569144
1	0x3bb4050f	0.005493767
2	0x3e8eef3a	0.2791689
3	0x3d3dc8e3	0.04633416
4	0x3d913b91	0.070914395
5	0xbeb555d3	-0.3541704
6	0x3da57146	0.08078246
7	0x3e7eaa56	0.24869666
8	0xbe43e7c0	-0.19131374
9	0xbe8ccba6	-0.2749912
10	0xbe1b4a42	-0.15165046
11	0xbe796d81	-0.24358179
12	0xbe9faea0	-0.31187916
13	0xbf0a4281	-0.54007727
14	0x3ee250d4	0.44202292
